results/model.pt (torch, 117879 bytes, 24 tensors)

fc1.weight f4 [64, 40]
0.00046486437 0.018810652 0.00010408688 0.00051456154 0.00046753485 0.0039558117 0.00010435061 0.0005131305
0.00046269447 -0.015945576 0.00010285005 0.0008703851 0.00048789804 0.006768725 0.000106012005 0.000511514
0.00046678484 0.0006743865 0.00010733357 0.00051442743 0.00036963116 0.0012433538 0.00010631974 0.0005117268
0.00044372273 0.0014956221 0.000106407984 0.0005046055 0.0004703321 -0.0081692785 0.00010598134 0.00041348333
0.00046205148 0.010353099 0.000106114516 0.00050921703 0.00055280916 0.004274835 0.00010571741 0.000515477
0.0084104845 0.04663321 0.0019086163 0.009132945 0.008477935 0.055072688 0.0018837366 0.009054363
0.008406188 0.033757146 0.0018517714 0.006975715 0.007797252 0.056396294 0.0019320035 0.007204321
0.007573092 0.06739945 0.0019391361 0.0090694195 0.008775525 0.037564572 0.001939326 0.008887034
0.008490324 0.04067148 0.0019221591 0.008986474 0.00854605 0.034737002 0.0018946232 0.009124908
0.008423895 0.026006319 0.0018870116 0.009132523 0.008400074 0.02236123 0.0018895605 0.009458136
0.0033687528 0.037233826 0.00077597797 0.0031941584 0.0021751402 0.03110482 0.00076467264 0.0035294483
0.0033723463 0.031124692 0.0007530105 0.003608633 0.0027626343 0.043548916 0.00078475033 0.002413919
0.0022799463 0.03614287 0.0007845093 0.0036701176 0.0021701711 0.0080784215 0.0007905554 0.0036703534
0.0033927883 -0.008983275 0.0007754699 0.003666601 0.003357379 -0.012672853 0.00077308016 0.0033967101
0.0032238178 -0.016542789 0.00076805 0.0036615657 0.0033814467 0.03821044 0.0007593647 0.002413343
0.007408613 0.04145472 0.0023353938 0.005695843 0.010182209 0.070902795 0.0023019155 0.011151247
0.01093445 -0.017749513 0.002287021 0.0070369625 0.009814091 0.08599918 0.0023372704 0.010395458
0.010964915 0.05167575 0.0023053295 0.009464049 0.0103820115 0.050043683 0.0023035884 0.01097398
0.008591399 0.077872984 0.002304673 0.01172461 0.010299649 0.025891526 0.002307252 0.011921088
0.01011324 0.059266396 0.0022801713 0.011339161 0.009723013 0.016311277 0.0022637432 0.011244423
0.01098049 0.053705245 0.0024898192 0.008672165 0.00982857 0.021561233 0.0025256327 0.011723556
0.01087721 0.008257275 0.0024231004 0.011665858 0.010905127 0.07730117 0.0025245866 0.0117396135
0.010890724 0.068977796 0.0025410207 0.011778062 0.010782031 0.04991472 0.0025351883 0.011478522
0.010934313 0.046418354 0.002479987 0.011518926 0.0106757125 0.024248242 0.0025300928 0.011857545
0.01060249 0.06556606 0.002465256 0.011504511 0.010472816 0.0730746 0.0024924718 0.008657992
0.005930473 0.04880647 0.0013091052 0.0056034634 0.0059414655 0.03562285 0.0013218522 0.00644739
0.005931635 0.023649963 0.0013487176 0.006419902 0.0060100653 0.012541423 0.0013411744 0.0064546107
0.005972639 0.025194732 0.0013343745 0.0064594704 0.005930019 0.0119561795 0.0013328874 0.0054778517
0.0059173615 0.037439633 0.0013405825 0.006510342 0.0057677096 0.04502101 0.0013238464 0.00649499
0.005917589 0.0043274094 0.0013206439 0.0063356124 0.0058808597 0.041664477 0.0013381641 0.006426131
0.00018940872 0.000861856 4.150593e-05 0.00020090514 0.0001885516 0.00086904835 4.283233e-05 0.0002024934
0.00018324159 0.0008337229 4.7771347e-05 0.00020809387 0.00018799768 0.00083336374 3.8290582e-05 0.00021228586
00000000: 0ab9 f339 cc18 9a3c 3849 da38 a4e3 063a
00000010: 771f f539 c19f 813b cfd6 da38 9b83 063a
00000020: cd95 f239 4ca0 82bc 33b1 d738 8e2a 643a
00000030: 91cc ff39 2ecc dd3b c352 de38 2017 063a
00000040: cdba f439 50c9 303a 4618 e138 a4da 063a
00000050: 0ecb c139 08f8 a23a faf7 de38 6725 063a
00000060: 75a3 e839 c008 c43a 5a27 df38 8047 043a
00000070: e896 f639 70d8 05bc 4c42 de38 cbc8 d839
00000080: 803f f239 0ba0 293c cc89 de38 fa7c 053a
00000090: 65ea 103a ea13 8c3b 9ab4 dd38 1321 073a
000000a0: 21cc 093c 7702 3f3d 892a fa3a 59a2 153c
000000b0: 09e7 0a3c e693 613d b6e7 f63a c058 143c
000000c0: 1cba 093c ef44 0a3d 23b7 f23a 8a94 e43b
000000d0: 1780 ff3b cdff 663d 483b fd3a 3a12 ec3b
000000e0: b327 f83b b908 8a3d 9c2a fe3a e797 143c
000000f0: 38c7 0f3c 4fdd 193d fb30 fe3a ec9a 113c
00000100: 001b 0b3c 2397 263d f5f0 fb3a 013c 133c
00000110: bb04 0c3c 6348 0e3d 0155 f83a a380 153c
00000120: 6004 0a3c 340b d53c 9a55 f73a 94a0 153c
00000130: 77a0 093c e62e b73c 21ab f73a 4cf6 1a3c
00000140: 4bc6 5c3b 7f82 183d 006b 4b3a 1655 513b
00000150: cc8c 0e3b 89cf fe3c 5074 483a 514e 673b
00000160: 9502 5d3b 36f9 fe3c ae65 453a d17e 6c3b
00000170: 500d 353b 5960 323d b4b7 4d3a d732 1e3b
00000180: 276b 153b 8c0a 143d 87a7 4d3a 5b86 703b
00000190: 6e39 0e3b 5b5b 043c 463d 4f3a 508a 703b
000001a0: 8b59 5e3b 962e 13bc e748 4b3a 5b4b 703b
000001b0: 7907 5c3b cca1 4fbc 88a8 4a3a 579b 5e3b
000001c0: b046 533b be84 87bc f756 493a e1f6 6f3b
000001d0: 439b 5d3b 8d82 1c3d 1a10 473a 2d29 1e3b
000001e0: f3c3 f23b 6dcc 293d 680d 193b 32a4 ba3b
000001f0: 48d3 263c 7c35 913d bcdb 163b b8b3 363c
00000200: 6826 333c 6d67 91bc d8e1 153b 5296 e63b
00000210: 48cb 203c 5720 b03d e42c 193b b651 2a3c
00000220: 30a6 333c f4a9 533d 0315 173b 190f 1b3c
00000230: 5019 2a3c 9bfa 4c3d cdf7 163b 35cc 333c
00000240: f0c2 0c3c df7b 9f3d ff09 173b 9418 403c
00000250: dcbf 283c 771a d43c 4435 173b ab50 433c
00000260: 01b2 253c 52c1 723d ed6e 153b e3c7 393c
00000270: 464d 1f3c 3a9f 853c 4f5b 143b 873a 383c
00000280: 83e7 333c 08fa 5b3d 3c2c 233b b215 0e3c
00000290: 0308 213c 2fa1 b03c 1685 253b 2814 403c
000002a0: 5336 323c 8649 073c e1cc 1e3b 2822 3f3c
000002b0: 6bab 323c 1350 9e3d 8973 253b 8257 403c
000002c0: 026f 323c 3b44 8d3d 4187 263b c6f8 403c
000002d0: 1ea7 303c 6173 4c3d 6725 263b 6910 3c3c
000002e0: d525 333c 2c21 3e3d 4787 223b e1b9 3c3c
000002f0: 2fe9 2e3c 40a4 c63c eacf 253b 2646 423c
00000300: 11b6 2d3c 8047 863d 2290 213b 6b7d 3c3c
00000310: 2d96 2b3c 23a8 953d bd58 233b 40da 0d3c
00000320: 6a54 c23b 4be9 473d 4896 ab3a 429d b73b
00000330: a0b0 c23b 44e9 113d 0042 ad3a a144 d33b
00000340: 295e c23b 91bd c13c 74c7 b03a 0b5e d23b
00000350: 15f0 c43b 8a7a 4d3c 58ca af3a 3381 d33b
00000360: 21b6 c33b 2f65 ce3c 2ee6 ae3a f7a9 d33b
00000370: 9b50 c23b dae3 433c 48b4 ae3a 8d7f b33b
00000380: 6de6 c13b 4d5a 193d 7cb6 af3a b554 d53b
00000390: 0eff bc3b f367 383d ea84 ad3a edd3 d43b
000003a0: 56e8 c13b f1cc 8d3b 7519 ad3a f89a cf3b
000003b0: 3ab4 c03b 5fa8 2a3d 5665 af3a 4b92 d23b
000003c0: 049c 4639 2dee 613a a716 2e38 10aa 5239
000003d0: efb5 4539 d9d0 633a dda6 3338 6854 5439
000003e0: 8a24 4039 328e 5a3a 185e 4838 c633 5a39
000003f0: 3e21 4539 1876 5a3a 339a 2038 0d99 5e39

fc1.bias f4 [64]
4.3875367e-05 0.0007138177 0.00028925948 0.0008743076 0.0009188999 0.0005319045 1.56267e-05 2.002061e-16
3.6811172e-09 -6.182667e-11 1.3852951e-06 0.0007440686 0.00056039484 0.0004658526 0.00033128075 0.0003432448
-9.337636e-15 5.5615088e-05 0.00041625145 0.0010330023 0.000112525275 -1.4884957e-12 3.9279164e-14 3.983372e-13
0.00021835348 4.829289e-07 -6.420504e-11 -7.020949e-10 1.7840053e-05 4.54394e-06 9.11301e-13 0.00032795826
1.0331472e-09 2.8214478e-07 1.4464915e-07 5.2963384e-07 0.00085024274 1.884607e-16 -4.7864593e-16 2.2112799e-07
0.0007580369 8.49133e-15 0.0004281192 5.8935443e-06 0.0008575853 0.0010951705 8.8965876e-08 0.0012802266
1.4286154e-08 0.00042712555 0.00020934941 3.902345e-11 0.0004386657 1.7636432e-05 0.00029123708 -4.7431996e-11
0.00033887726 -7.787392e-14 5.0987146e-06 0.0002559167 0.00020157894 8.9108223e-17 3.661661e-06 3.0297416e-14
00000000: d106 3838 7f1f 3b3a c0a7 9739 ca31 653a
00000010: 54e2 703a 826f 0b3a 1516 8337 69d2 6625
00000020: e6f6 7c31 52f5 87ae 61ee b935 990d 433a
00000030: 76e7 123a ad3d f439 c0af ad39 8af5 b339
00000040: 3f36 28a8 3f44 6938 533c da39 ce65 873a
00000050: 8cfb eb38 b67c d1ab cbe5 3029 713e e02a
00000060: d1f5 6439 9fa2 0135 3930 8dae 89fd 40b0
00000070: 39a7 9537 2678 9836 1441 802b d0f1 ab39
00000080: a3fe 8d30 af79 9734 db50 1b34 292c 0e35
00000090: d3e2 5e3a c847 5925 d6f5 09a6 336f 6d34
000000a0: ffb6 463a 59f7 1828 3075 e039 29c1 c536
000000b0: 93cf 603a d38b 8f3a 820d bf33 47cd a73a
000000c0: 2b6f 7532 d2ef df39 ce84 5b39 80a0 2b2e
000000d0: b7fc e539 f3f1 9337 2eb1 9839 ae9b 50ae
000000e0: 56ab b139 425b afa9 a015 ab36 8f2c 8639
000000f0: ef5e 5339 3678 cd24 dbba 7536 8b72 0829

fc2.weight f4 [64, 64]
0.0004348322 0.027304815 0.004280947 0.010097774 0.012457718 0.02037768 0.00020794781 -2.0807666e-16
5.080287e-08 -6.5724903e-06 1.7508653e-05 -0.0038677219 0.011399525 0.009735688 0.004188249 0.0023353922
2.3620397e-11 0.00070801604 0.010584964 0.011414487 0.0014286077 6.701308e-16 -8.172006e-16 -5.2720395e-07
0.007183512 0.00036988073 1.2322215e-10 2.4593458e-10 0.0002543428 5.756401e-05 9.732519e-11 0.0033679144
2.2454259e-14 3.5712756e-06 1.8731951e-06 1.1135019e-15 0.034179702 -1.3109292e-15 -2.9143405e-15 2.7937765e-06
0.002568682 2.3668436e-15 0.005620953 8.320762e-05 0.03431323 0.017703742 1.108041e-06 0.01924223
1.777873e-07 0.0056557404 0.0018687776 -6.821232e-16 0.0060371975 0.00021555115 0.0006590958 6.937433e-06
-0.0005795135 3.7773436e-13 6.63803e-05 0.007544177 0.003263289 -1.3055235e-10 4.7218662e-05 0.0014907658
0.00011683672 0.01490219 0.00094647513 -0.0005083701 0.004051131 -0.0001696418 4.6787976e-05 8.8487245e-16
1.26488375e-08 2.7274011e-06 4.186973e-06 -0.005402573 0.0011519227 0.00097079045 0.00094821403 0.0009022265
4.6165648e-11 0.00016529972 0.0009704232 -0.001728518 0.00033409038 -6.725e-16 -6.8316724e-12 -8.680311e-11
-0.00094655104 -0.00020614185 4.8652592e-11 -1.2566939e-14 6.1085826e-05 1.413155e-05 3.931792e-11 0.00085965707
1.0061726e-09 9.1098565e-07 4.4516963e-07 -2.2609292e-16 0.007614611 1.3753153e-15 -1.0090955e-09 6.856621e-07
-0.01211199 -6.7745237e-12 0.0012006193 1.8942479e-05 -0.00032916723 0.015347551 2.7484035e-07 0.0066213147
4.7080484e-08 0.0012355351 0.00055977463 5.7623937e-16 0.001439032 5.2535765e-05 0.00071499107 1.2442037e-05
0.0022635602 9.886205e-10 1.5910206e-05 0.0007168807 0.0007924019 -6.789852e-16 1.1416745e-05 -6.44134e-05
1.7359374e-05 0.0003798444 0.0001399154 0.00034085495 0.0003593034 0.000211861 6.5302224e-06 3.404715e-13
1.9571702e-09 2.3372866e-14 5.7662163e-07 0.00029766982 0.00022579762 0.00018824723 0.00013807052 0.00013660573
-9.842492e-10 2.2939137e-05 0.0001700343 0.0003931829 4.627933e-05 1.9364499e-16 -1.4532236e-14 2.5679017e-14
9.839758e-05 3.8656595e-10 6.3588765e-12 -3.108671e-14 8.83149e-06 1.5441026e-06 3.8141964e-12 0.00013581944
1.9974837e-15 1.1914689e-07 6.190954e-08 2.1589532e-15 0.00032953813 1.5601195e-16 -8.3731817e-13 9.029701e-08
0.00032392587 -1.1915573e-10 0.00017066693 2.619163e-06 0.00038540337 0.00044014488 3.8206014e-08 0.0005186394
6.6015953e-09 0.00018032214 8.363659e-05 -6.0117346e-13 0.00019757297 7.2255352e-06 0.00011438077 3.461886e-16
0.00015115816 2.7662568e-14 2.3730158e-06 0.000112145746 7.6262986e-05 -2.0128833e-16 1.5984238e-06 9.570788e-13
4.653757e-11 6.9074174e-10 3.7565942e-10 9.217027e-10 8.475007e-10 5.246359e-10 1.7168116e-11 8.640964e-15
-6.1081165e-14 -1.8594917e-16 3.9247283e-11 8.1296964e-10 9.2950847e-10 1.2340292e-09 3.894701e-10 3.686801e-10
8.440788e-15 1.0140209e-10 4.570888e-10 1.1485428e-09 1.2362074e-10 -4.397873e-14 -1.6522029e-15 -4.6389637e-12
2.6406624e-10 -8.223827e-13 3.7227257e-17 -2.0780744e-15 2.1031281e-11 5.276861e-12 -1.3697335e-12 3.67124e-10
1.0293764e-09 3.1080653e-13 1.6630329e-13 6.3466035e-16 9.602729e-10 3.4217225e-16 1.3293237e-12 2.9929736e-11
9.399778e-10 3.0392373e-16 4.787613e-10 6.4437114e-12 1.0410036e-09 8.8141966e-10 6.3468524e-14 1.4296192e-09
1.3581654e-12 3.8831627e-10 1.9434415e-10 3.4615511e-15 4.923835e-10 1.6938095e-11 3.0094474e-10 1.4355402e-12
3.3788708e-10 -4.8333487e-15 4.7512415e-12 2.6586372e-10 1.9899651e-10 -4.4066339e-16 1.07246035e-11 -3.6411384e-15
00000000: 31fa e339 59ae df3c 3047 8c3b 2271 253c
00000010: 751b 4c3c 18ef a63c 910c 5a39 64e5 6fa5
00000020: 5932 5a33 4389 dcb6 8cdf 9237 9b79 7dbb
00000030: 13c5 3a3c 6f82 1f3c 943d 893b 610d 193b
00000040: 68c4 cf2d 279a 393a 8f6c 2d3c d403 3b3c
00000050: 1f40 bb3a ed26 4126 c38a 6ba6 2e85 0db5
00000060: ab63 eb3b 8dec c139 f47b 072f 3734 872f
00000070: 5059 8539 e370 7138 3605 d62e 3ab8 5c3b
00000080: ff3f ca28 0caa 6f36 7e6a fb35 f878 a026
00000090: 0400 0c3d c0ec bca6 1800 52a7 b77c 3b36
000000a0: 5557 283b 8f8c 2a27 f92f b83b c07f ae38
000000b0: 088c 0c3d 7007 913c 00b8 9435 e2a1 9d3c
000000c0: cde5 3e34 ca53 b93b c5f1 f43a cf9b 44a6
000000d0: afd3 c53b 9205 6239 2cc7 2c3a 19c8 e836
000000e0: 7eea 17ba 42a5 d42a a735 8b38 2535 f73b
000000f0: e8dc 553b 388b 0faf a70c 4638 cd65 c33a
00000100: 3d06 f538 5128 743c df1c 783a 2444 05ba
00000110: 5abf 843b e0e1 31b9 353e 4438 100c 7f26
00000120: 2d4e 5932 6508 3736 d37d 8c36 1108 b1bb
00000130: 1dfc 963a a57c 7e3a 9191 783a 6583 6c3a
00000140: e609 4b2e 4e54 2d39 0064 7e3a 718f e2ba
00000150: da28 af39 bed5 41a6 3c5e f0ac cfe1 beae
00000160: f721 78ba c827 58b9 f3f9 552e c762 62a8
00000170: 341b 8038 8c16 6d37 0bec 2c2e 9c5a 613a
00000180: 8d49 8a30 758a 7435 a6ff ee34 6d55 82a5
00000190: fd83 f93b 2e34 c626 64b0 8ab0 570e 3835
000001a0: 5e71 46bc 7c5b eeac 195e 9d3a aae6 9e37
000001b0: 1494 acb9 4b74 7b3c c58d 9334 9df7 d83b
000001c0: 8a35 4a33 aef1 a13a d7bd 123a f616 2626
000001d0: e79d bc3a d959 5c38 3d6e 3b3a 24be 5037
000001e0: 3d58 143b fedf 8730 e876 8537 0ded 3b3a
000001f0: 31b9 4f3a 44b4 43a6 8c8a 3f37 ae15 87b8
00000200: f99e 9137 da25 c739 41b6 1239 c7b4 b239
00000210: e360 bc39 0127 5e39 2f1e db36 1dab bf2a
00000220: e77e 0631 2986 d228 23c9 1a35 9110 9c39
00000230: 16c4 6c39 3b64 4539 06c7 1039 d23d 0f39
00000240: 3146 87b0 6c6d c037 3c4b 3239 1e24 ce39
00000250: 0d1c 4238 ea41 5f25 0ee5 82a8 c84b e728
00000260: cc5a ce38 5284 d42f abbb df2c 8900 0ca9
00000270: f62a 1437 f63e cf35 3a33 862c c16a 0e39
00000280: 12ef 0f27 b2dd ff33 21f3 8433 a891 1b27
00000290: dcc5 ac39 9ade 3325 22af 6bab 4ee9 c133
000002a0: 98d4 a939 5b03 03af 0ef5 3239 e1c4 2f36
000002b0: f70f ca39 3fc3 e639 f517 2433 4df5 073a
000002c0: 3fd4 e231 db14 3d39 0d66 af38 1d37 29ab
000002d0: 972b 4f39 e072 f236 b5df ef38 6c90 c725
000002e0: 3680 1e39 8a29 f928 1a40 1f36 ca2f eb38
000002f0: 61ef 9f38 d411 68a5 6c89 d635 66b2 862b
00000300: a5ac 4c2e a1de 3d30 5d85 ce2f 105b 7d30
00000310: 8ff5 6830 f835 1030 2903 972d 6aa9 1b28
00000320: e58a 89a9 8262 56a5 839c 2c2e a777 5f30
00000330: 5880 7f30 8b9a a930 0b1d d62f 1caf ca2f
00000340: 440e 1828 4dfc de2e 8849 fb2f c2da 9d30
00000350: 25ec 072f 0610 46a9 871b eea6 1238 a3ac
00000360: 052c 912f eb7a 67ab 30ae 2b24 b5bd 15a7
00000370: 3cfe b82d bda9 b92c dac5 c0ab 1cd4 c92f
00000380: f679 8d30 f1f7 ae2a a93d 3b2a abed 3626
00000390: 99fa 8330 b63f c525 ef15 bb2b e3a1 032e
000003a0: 8730 8130 3a33 af25 d599 0330 cbb7 e22c
000003b0: 0f13 8f30 6548 7230 1deb 8e29 417c c430
000003c0: 1125 bf2b a87a d52f 04af 552f 596e 7927
000003d0: 6958 0730 33fd 942d 3572 a52f c908 ca2b
000003e0: 61c1 b92f c623 aea7 612b a72c fe28 922f
000003f0: 8acc 5a2f 7006 fea5 52ab 3c2d 932f 83a7

fc2.bias f4 [64]
0.00037898094 9.190244e-05 1.279917e-05 3.6048015e-11 -5.611492e-11 4.7627005e-08 5.73707e-07 2.6862124e-12
1.5925867e-12 4.3448663e-06 2.8176352e-13 6.5853534e-15 1.935624e-11 0.0024882636 7.3340634e-05 1.6622525e-11
0.00070355745 1.6047194e-06 1.9214831e-11 5.508264e-10 3.9725724e-05 -6.0121413e-12 0.0007624881 8.518128e-08
4.8090243e-10 0.00029633899 8.712926e-16 0.00011370462 3.254022e-14 3.0084166e-05 5.8179152e-11 -3.0976547e-12
9.407378e-06 0.0020739764 0.000102896716 2.0428722e-14 8.809716e-14 -4.986964e-09 0.0008600281 2.4714613e-13
7.406567e-05 0.0025889801 0.0013214957 2.6362144e-08 6.818962e-05 -7.579363e-07 4.793549e-07 0.00011468726
8.1734614e-10 3.7199858e-05 0.0011771618 -5.422953e-13 2.9685776e-05 1.561851e-05 2.211574e-11 1.8115436e-10
7.64229e-05 0.00022742842 0.0007727906 7.052747e-05 8.615748e-05 0.000831537 -5.9410477e-10 0.0022370191
00000000: f6b1 c639 bfbb c038 04bc 5637 758a 1e2e
00000010: c8cb 76ae 728e 4c33 d800 1a35 8006 3d2c
00000020: fc22 e02b 1eca 9136 679e 9e2a 2a43 ed27
00000030: 6142 aa2d 2312 233b 74ce 9938 9936 922d
00000040: f16e 383a bd61 d735 f403 a92d f668 1730
00000050: 2c9f 2638 8e88 d3ac b6e1 473a e7ec b633
00000060: 8030 0430 f25d 9b39 0c22 7b26 b474 ee38
00000070: 528c 1229 415d fc37 e7df 7f2e 63fa 59ac
00000080: 61d4 1d37 8deb 073b 41ca d738 6d01 b828
00000090: 8e60 c629 cd59 abb1 8273 613a 8321 8b2a
000000a0: b453 9b38 e1ab 293b 0a36 ad3a f872 e232
000000b0: 0601 8f38 fc74 4bb5 05ad 0035 4184 f038
000000c0: 9fab 6030 0b07 1c38 ff4a 9a3a 7fa4 18ab
000000d0: b805 f937 7f04 8337 3888 c22d 6b2e 472f
000000e0: 3b45 a038 da79 6e39 1995 4a3a 26e8 9338
000000f0: 72af b438 81fb 593a 684e 23b0 f49a 123b

fc3.weight f4 [32, 64]
0.027602697 0.0010656492 0.000116579475 3.0743122e-10 -0.0004105897 6.361061e-07 6.555124e-06 1.9867778e-11
3.9119256e-11 4.6134435e-05 6.64734e-10 -6.445088e-05 4.0955553e-10 0.076120526 -0.004881926 2.5368327e-10
-0.014289904 1.7061111e-05 1.0077501e-09 5.4160714e-11 0.00040150332 -1.9469635e-15 0.0061098174 -2.3849022e-06
5.1976334e-09 0.005599167 -1.0197628e-09 0.0011577397 -2.6743465e-11 0.00041961973 6.851066e-10 1.2625895e-11
0.00011444943 0.03331136 0.001148536 -8.7811486e-12 -3.6497107e-11 -0.0017705383 0.010363734 -4.0451472e-11
0.0010118675 0.040000953 0.019002829 5.3402035e-12 0.0007659201 1.6349528e-06 5.151489e-06 0.0020286455
1.1183614e-08 0.00050930196 -0.004104509 2.663706e-11 0.00034983034 0.00017949585 2.0965843e-10 1.9834885e-09
0.00089362107 0.0021441863 -0.0070282975 0.0007535383 0.00088842283 -0.012927029 1.7627416e-14 -0.002480583
-2.8059922e-08 -4.539231e-09 -6.147267e-10 -1.6783001e-15 2.3175474e-15 -2.2300996e-12 -2.2455154e-11 -3.1188368e-13
7.044219e-14 -4.7696e-10 -8.841189e-16 -1.3076423e-12 -2.3909258e-15 -1.2904472e-07 -4.8600106e-09 1.3613804e-12
-3.0841488e-08 -7.703274e-11 -2.7413605e-14 -5.684812e-13 -1.9695778e-09 1.9522383e-13 -3.7228823e-08 2.6224505e-11
-5.4544514e-14 -1.5701847e-08 1.02177666e-13 -6.417053e-09 1.545635e-13 -1.4542345e-09 -4.958409e-15 7.29859e-12
-4.701441e-10 -1.164769e-07 -2.6702192e-09 3.15665e-14 1.511996e-12 1.280548e-15 -3.8117513e-08 -6.651126e-15
-5.101913e-09 -2.3122054e-07 -6.352195e-08 -4.008567e-16 -2.9494742e-09 -1.5925598e-11 -2.1131234e-11 -9.767586e-09
3.065e-14 -1.8730941e-09 -6.233107e-08 -8.6282666e-14 -3.2405811e-09 -7.309492e-10 -1.1981322e-14 -5.5037128e-11
-3.5936556e-09 -1.650148e-08 -3.8828524e-08 -3.2735386e-09 -4.151546e-09 -4.15064e-08 -1.0608611e-16 -1.893564e-07
0.0074584247 0.0015386053 0.00019087824 5.891975e-10 4.2494765e-13 7.041759e-07 9.139421e-06 2.5210318e-11
-3.658324e-11 6.872919e-05 -8.417906e-13 -1.148138e-12 3.0096933e-10 0.044743385 0.0014588967 1.2218054e-09
0.009030681 2.3828867e-05 5.4273683e-11 9.2768807e-11 0.0005917195 -2.8928915e-15 0.011211606 2.1883726e-09
7.3772295e-09 0.0047900006 -5.903654e-16 0.0016749664 6.495509e-12 0.00044695218 9.228791e-10 4.9919123e-12
0.00014442595 0.031169312 0.0015473636 4.0030214e-12 3.6835856e-12 7.029087e-14 0.011530503 1.8899654e-12
0.001102511 0.035219572 0.017874403 -4.8217613e-15 0.0010879784 1.4603673e-06 7.1842233e-06 0.0029178632
1.2461558e-08 0.00062413886 0.018826263 -4.273472e-10 0.0004568704 0.00025056629 3.1723948e-10 2.7023939e-09
0.0011880506 0.0050480566 0.01183489 0.0010766928 0.0012851498 0.011516908 5.871628e-15 0.04152096
-0.0023297104 1.7745297e-13 -1.3751577e-14 -3.6595096e-14 -0.0002889528 1.5192252e-12 6.3884674e-12 3.8954734e-17
2.0461576e-15 1.101443e-15 2.7620654e-11 0.004945517 -1.83582e-15 0.008853738 -5.5629965e-15 -2.3446067e-14
0.0023340175 2.7638242e-17 -1.4327163e-12 4.404192e-17 2.9084052e-16 2.1828992e-16 1.7664963e-11 2.3098999e-05
2.4114492e-17 0.0075752228 1.0156338e-14 -3.2385503e-16 -0.00012434268 1.4950021e-15 -1.7282634e-16 5.7166504e-11
-4.053889e-11 -0.0036601569 8.834905e-16 0.00053659745 -0.00014742602 -0.00036902702 -0.009791982 1.2376014e-15
-2.9420832e-16 -0.0005370583 0.00037158624 -0.00015399553 -1.4220304e-12 7.7505155e-12 -6.520341e-16 0.0018852435
5.160621e-17 -1.432681e-14 -0.016900837 -2.6212612e-16 4.5613123e-12 4.8383075e-11 -5.7549753e-11 9.4623355e-15
9.132279e-06 -0.0014360385 -0.0012683083 4.414811e-16 2.4216748e-12 -0.0005647455 5.54064e-06 0.0042958483
00000000: 0d1f e23c 41ad 8b3a 217c f438 1903 a92f
00000010: 6b44 d7b9 e1c0 2a35 16f4 db36 42c2 ae2d
00000020: 5e0c 2c2e 7980 4138 7fb8 3630 cd29 87b8
00000030: d127 e12f 14e5 9b3d 90f8 9fbb bf76 8b2f
00000040: 3420 6abc 751e 8f37 0e81 8a30 8b33 6e2e
00000050: dd80 d239 234b 0ca7 dd34 c83b 4f0c 20b6
00000060: de96 b231 3879 b73b b727 8cb0 4cbf 973a
00000070: ee3c ebad 6800 dc39 1752 3c30 fa1d 5e2d
00000080: 9204 f038 7e71 083d 798a 963a c77a 1aad
00000090: 1784 20ae 6811 e8ba a7cc 293c 4fe8 31ae
000000a0: a4a0 843a 0ad8 233d d2ab 9b3c 47e4 bb2c
000000b0: 07c8 483a 8d70 db35 f4da ac36 06f3 043b
000000c0: 0e22 4032 ad82 053a 1e7f 86bb 544d ea2d
000000d0: 6f69 b739 0d37 3c39 9a85 662f e64d 0831
000000e0: e541 6a3a 7a85 0c3b a24d e6bb 1989 453a
000000f0: 0ce5 683a e4cb 53bc 0ec6 9e28 4791 22bb
00000100: 6c08 f1b2 80f7 9bb1 8cf9 28b0 58de f1a6
00000110: 34ff 2627 e7ed 1cac 8384 c5ad 2d93 afaa
00000120: 289f 9e29 141b 03b0 76d4 7ea6 c708 b8ab
00000130: cc48 2ca7 8b8f 0ab4 1bfd a6b1 e698 bf2b
00000140: 9376 04b3 9465 a9ae 78eb f6a8 6303 20ab
00000150: 2e59 07b1 70cd 5b2a 86e5 1fb3 56ac e62d
00000160: 8ba5 75a9 bae0 86b2 6a15 e629 ff7c dcb1
00000170: e505 2e2a 54de c7b0 40a5 b2a7 ed65 002d
00000180: 733b 01b0 da21 fab3 fe7e 37b1 b229 0e29
00000190: 66cb d42b e28b b826 a6b6 23b3 cfa1 efa7
000001a0: e74c afb1 6b45 78b4 9069 88b3 0214 e7a5
000001b0: b3af 4ab1 4215 8cad 4fdf b9ad 4cce 27b2
000001c0: 0b09 0a29 d2b7 00b1 deda 85b3 924a c2a9
000001d0: e8b0 5eb1 faeb 48b0 18d6 57a8 4c0e 72ae
000001e0: 42f4 76b1 23bf 8db2 6ac4 26b3 b3f4 60b1
000001f0: 63a5 8eb1 c544 32b3 309e f4a4 e451 4bb4
00000200: cd65 f43b 07ab c93a 7d26 4839 17f5 2130
00000210: 6939 ef2a 9906 3d35 8455 1937 97c0 dd2d
00000220: 11e5 20ae b422 9038 68f1 6cab 0896 a1ab
00000230: ab75 a52f d744 373d 7338 bf3a 75ec a730
00000240: 6cf5 133c 1ae4 c737 bcb2 6e2e 3200 cc2e
00000250: a01d 1b3a 6e74 50a7 e2b0 373c 4262 1631
00000260: cc7a fd31 70f5 9c3b 4729 2aa6 8c8a db3a
00000270: 588a e42c e854 ea39 d8ad 7d30 26a3 af2c
00000280: 0c71 1739 c956 ff3c e8d0 ca3a 03d8 8c2c
00000290: ca9a 812c ee47 9e29 6fea 3c3c 97fe 042c
000002a0: 2182 903a 6642 103d 576d 923c e6b8 ada7
000002b0: 7f9a 8e3a d701 c435 0210 f136 9f39 3f3b
000002c0: 8316 5632 409d 233a 8939 9a3c c6ef eaaf
000002d0: 1b88 ef39 705e 8339 7d67 ae2f 04b5 3931
000002e0: 5db8 9b3a 2b6a a53b 20e7 413c d11f 8d3a
000002f0: 7972 a83a 6ab1 3c3c 368c d327 e211 2a3d
00000300: 0eae 18bb 56cb 472a f5b9 77a8 46cf 24a9
00000310: 977e 97b9 dbcf d52b 33c6 e02c a2a5 3324
00000320: f270 1327 13bc 9e26 2ff4 f22d 010e a23b
00000330: e748 04a7 450f 113c 966d c8a7 f32e d3a8
00000340: 51f6 183b f4ea fe23 0ba3 c9ab 861b 4b24
00000350: 7ca8 a725 d0ab 7b25 f661 9b2d b9c4 c137
00000360: bc6a de23 9339 f83b d8f5 3628 91b0 baa5
00000370: fc61 02b9 d873 d726 5541 47a5 c36b 7b2e
00000380: bc4a 32ae 3edf 6fbb 18a6 7e26 72aa 0c3a
00000390: 5f96 1ab9 f879 c1b9 8d6e 20bc 6f5b b226
000003a0: 7c99 a9a5 5fc9 0cba 76d1 c239 dc79 21b9
000003b0: 0b22 c8ab 3859 082d a0ef 3ba6 461a f73a
000003c0: dcfd 6d24 600b 81a8 a073 8abc fd1a 97a5
000003d0: a67c a02c 80ca 542e 431b 7dae 5275 2a28
000003e0: d736 1937 7539 bcba 5d3d a6ba 1c7f fe25
000003f0: 0469 2a2c 6e0b 14ba bce9 b936 30c4 8c3b

fc3.bias f4 [32]
0.0008917064 -6.5203207e-09 0.0012848128 1.34022245e-14 0.0013973975 -0.00036534082 0.0057784785 0.00510601
2.1917682e-08 -7.591527e-05 1.7919607e-10 0.0008022018 -1.0903353e-12 0.000118628595 0.0013652359 0.0012640522
0.0030074506 2.1296289e-07 1.4811786e-06 0.0019809476 -1.6608595e-08 -1.7139697e-09 -1.092831e-09 0.0015146272
0.001501796 0.00022139834 0.0028722426 -4.708059e-09 0.0025018146 0.0001081252 2.2354808e-08 -0.010332694
00000000: 67c1 693a 5909 e0b1 2a67 a83a da6e 7128
00000010: e128 b73a 378b bfb9 6459 bd3b 5150 a73b
00000020: 7e45 bc32 b334 9fb8 3607 452f da4a 523a
00000030: 7873 99ab 3ec8 f838 b7f1 b23a 8eae a53a
00000040: a618 453b cbaa 6434 e9cc c635 c9d2 013b
00000050: b0aa 8eb2 f390 ebb0 9332 96b0 7586 c63a
00000060: e9d7 c43a 2a27 6839 3c3c 3c3b 86c4 a1b1
00000070: 7cf5 233b 46c1 e238 be06 c032 764a 29bc

fc4.weight f4 [11, 32]
-0.015219903 7.5810735e-10 -0.018690202 -4.9027452e-08 -0.033919465 0.00053954555 -0.028951453 -0.06387265
2.3372015e-09 0.00015200791 -5.7812485e-05 -0.011739328 -0.00066213246 -0.0017400413 -0.025479326 -0.01980591
-0.043086436 8.783143e-07 -3.3379463e-05 -0.027646054 1.4626839e-12 1.6097239e-10 5.653915e-13 -0.023424579
-0.022595458 -0.0018875288 -0.025778452 7.063074e-06 -0.047780987 -0.0021197079 2.2973035e-08 -0.056689586
0.043388765 -2.1535815e-09 -0.026842311 -5.009479e-16 0.02007797 0.015319326 0.028711978 -0.07929614
-4.4622275e-09 0.0018445634 -5.5109954e-06 -0.01346344 0.003354919 -0.0015223856 -0.08889805 -0.0050926893
0.026660763 -1.0976676e-06 0.020941893 -0.1301438 -8.61627e-14 -7.587177e-12 -1.2572252e-12 -0.03194342
0.083765656 -0.040525604 0.0438394 -9.139928e-07 -0.113813385 -1.0679414e-05 0.0007142875 -0.13426198
-0.019446261 5.405037e-10 -0.022103835 7.866764e-06 -0.1400778 0.039761975 -0.036188185 -0.095073804
-1.40144875e-05 0.009174294 -0.001175531 -0.015114065 0.013500054 -0.0022097344 -0.04116648 -0.02954732
-0.046842128 -3.1947402e-06 -0.039168622 -0.08186294 2.0570483e-12 3.4024508e-06 -3.4791638e-12 -0.02991717
-0.04645824 -0.039995123 0.08752695 -1.2693341e-06 -0.058106653 -0.0021115576 -0.001988488 -0.06547846
0.023406606 2.6472056e-09 -0.030703994 -4.275153e-13 -0.01195517 0.0008325658 -0.14955464 -0.12493883
-1.2664773e-09 0.0095064435 -2.5099898e-05 -0.020524243 -0.0022372296 -0.0028885903 0.033347894 0.092352875
-0.07384562 -4.6316477e-06 0.0042609875 -0.0065312064 1.1854949e-09 9.978974e-10 -1.4272275e-10 -0.12694633
0.040942088 0.042746656 0.026877584 -9.076524e-07 -0.098041415 -0.0027567279 0.0025614055 -0.061634976
-0.108745374 -1.464489e-09 -0.024032539 -1.354537e-15 0.11668106 -0.0044105086 -0.033913374 -0.095196
-6.328272e-10 0.011372258 0.0005816848 -0.015296196 0.0015731058 -0.0022115335 0.04951957 0.052099295
-0.11957507 -2.8208988e-06 0.02065174 -0.11609675 -1.5531235e-13 1.7161254e-05 -4.2168023e-12 -0.043781705
-0.08674139 -0.08638439 0.05714416 -5.1764605e-06 -0.03934872 -0.0020873875 -0.001440508 -0.1441156
-0.06117771 -2.5046143e-09 -0.03078326 7.204799e-10 -0.039944965 -0.04133392 -0.093592994 -0.1208621
5.195957e-07 0.03253402 0.007980083 -0.0194862 -0.0019895309 -0.0028232373 0.05006782 0.043544494
0.081442624 -3.997757e-06 -0.0466893 0.057578124 -9.6754035e-11 -4.7980673e-12 -2.7070231e-11 -0.008481582
0.014888939 0.04365949 -0.06339384 -1.6404094e-06 -0.15044878 -0.0026711186 0.019142853 -0.18007664
-0.043471776 -1.4293222e-09 -0.019137848 1.7373396e-06 -0.019973265 -0.011758233 -0.061437048 -0.09763166
-1.0245698e-09 0.007438107 0.0003592079 -0.015711637 0.008507861 -0.002303642 -0.03574993 -0.15548255
-0.05808355 -3.625941e-06 -0.0004280841 0.01796224 1.1627535e-12 -8.6641885e-06 -5.988979e-11 -0.035274513
-0.0017285185 0.07183377 0.10100063 -1.269997e-06 0.007264417 -0.002181998 -0.012668355 -0.1797897
-0.021501027 -2.8813205e-05 -0.026263226 -1.0381783e-06 -0.046299987 -0.0010043919 -0.03949396 -0.102274485
-2.0361235e-09 -1.1361684e-05 1.1318905e-09 -0.016385103 -2.3139157e-06 -0.002380366 -0.039277475 -0.027290136
-0.05906714 -2.896241e-06 2.1042734e-08 -0.03872087 1.0936431e-11 -1.3731897e-11 -3.203337e-10 -0.032412652
-0.032041688 -0.0029560404 -0.023775415 -6.123679e-07 -0.06385354 -0.0022643253 -7.1407134e-09 -0.072983995
00000000: e65c 79bc 1063 5030 321c 99bc 4192 52b3
00000010: 23ef 0abd 4a70 0d3a 992b edbc aacf 82bd
00000020: 7c9c 2031 5064 1f39 af7b 72b8 4f56 40bc
00000030: f592 2dba 1912 e4ba 05ba d0bc 0140 a2bc
00000040: 677b 30bd 4dc5 6b35 ed00 0cb8 fa79 e2bc
00000050: beda cd2b b3fd 302f c024 1f2b e7e4 bfbc
00000060: 1c1a b9bc f566 f7ba 552d d3bc 58ff ec36
00000070: ffb5 43bd ccea 0abb 3d56 c532 5733 68bd
00000080: 6bb8 313d 35fe 13b1 68e4 dbbc 6e63 10a6
00000090: 8e7a a43c e9fd 7a3c 6235 eb3c 0466 a2bd
000000a0: 2b52 99b1 47c5 f13a 17eb b8b6 c395 5cbc
000000b0: 33de 5b3b c98a c7ba 2e10 b6bd 93e0 a6bb
000000c0: ac67 da3c 9253 93b5 558e ab3c 6b44 05be
000000d0: 6a05 c2a9 9c79 05ad 50f0 b0ab 1bd7 02bd
000000e0: 548d ab3d 2dfe 25bd f190 333d 1b59 75b5
000000f0: fe16 e9bd bc2b 33b7 063f 3b3a f97b 09be
00000100: c44d 9fbc 9192 1430 1a13 b5bc 7efb 0337
00000110: 8e70 0fbe 74dd 223d 103a 14bd 0eb6 c2bd
00000120: c41f 6bb7 c74f 163c 4614 9aba fca0 77bc
00000130: 552f 5d3c 31d1 10bb 2f9e 28bd 390d f2bc
00000140: 88dd 3fbd 3865 56b6 476f 20bd c2a7 a7bd
00000150: 7dc0 102c a955 6436 0bd3 74ac da14 f5bc
00000160: ff4a 3ebd edd1 23bd 5441 b33d fd5d aab5
00000170: 3e01 6ebd 0f62 0abb 4b51 02bb 9219 86bd
00000180: 36bf bf3c 22ea 3531 f186 fbbc 73ab f0aa
00000190: 9edf 43bc 8c40 5a3a da24 19be eedf ffbd
000001a0: 3510 aeb0 eac0 1b3c 9f8d d2b7 7522 a8bc
000001b0: 7c9e 12bb 814e 3dbb cd97 083d 8123 bd3d
000001c0: 5f3c 97bd 8d69 9bb6 c19f 8b3b bb03 d6bb
000001d0: e5ee a230 6526 8930 e2ec 1caf 38fe 01be
000001e0: e4b2 273d 1e17 2f3d 612e dc3c 66a5 73b5
000001f0: f0c9 c8bd 38aa 34bb 41dd 273b f574 7cbd
00000200: e5b5 debd 2047 c9b0 e3df c4bc 9835 c3a6
00000210: 7bf6 ee3d 0786 90bb c0e8 0abd 1ff6 c2bd
00000220: 41f3 2db0 b552 3a3c 357c 183a e59c 7abc
00000230: ac30 ce3a 60ef 10bb 08d5 4a3d 1266 553d
00000240: c6e3 f4bd ac4e 3db6 d62d a93c 22c4 edbd
00000250: bddd 2eaa 83f5 8f37 945d 94ac 7254 33bd
00000260: 78a5 b1bd 4dea b0bd ff0f 6a3d 75b1 adb6
00000270: 202c 21bd 8dcc 08bb 6dcf bcba 0a93 13be
00000280: 7a95 7abd a41d 2cb1 2d2d fcbc 440b 4630
00000290: 559d 23bd c24d 29bd afad bfbd 8c86 f7bd
000002a0: 587a 0b35 6442 053d e5be 023c 86a1 9fbc
000002b0: ca62 02bb 1006 39bb ea13 4d3d b65b 323d
000002c0: 64cb a63d 7924 86b6 483d 3fbd 0ad7 6b3d
000002d0: aec3 d4ae 26d1 a8ac be1c eead 55f6 0abc
000002e0: bdf0 733c 4bd4 323d a1d4 81bd 0a2c dcb5
000002f0: 3f0f 1abe ef0d 2fbb 79d1 9c3c 0366 38be
00000300: 760f 32bd ce71 c4b0 fac6 9cbc 892e e935
00000310: f99e a3bc 9ba5 40bc 6aa5 7bbd 1cf3 c7bd
00000320: d8d0 8cb0 5dbb f33b 1154 bc39 b1b5 80bc
00000330: 8e64 0b3c b3f8 16bb 856e 12bd d136 1fbe
00000340: 04e9 6dbd 3155 73b6 7a70 e0b9 8c25 933c
00000350: 9ca4 a32b 685c 11b7 f4b2 83ae 027c 10bd
00000360: 758f e2ba 951d 933d 6bd9 ce3d c474 aab5
00000370: 590a ee3b daff 0ebb ef8e 4fbc cb1a 38be
00000380: ec22 b0bc e3b3 f1b7 fa25 d7bc 8957 8bb5
00000390: 0ea5 3dbd cda5 83ba 6bc4 21bd 4975 d1bd
000003a0: ddeb 0bb1 109e 3eb7 db90 9b30 0d3a 86bc
000003b0: c548 1bb6 eaff 1bbb 6be1 20bd 908f dfbc
000003c0: 63f0 71bd 0b5d 42b6 76c1 b432 c699 1ebd
000003d0: 4e65 402d f792 71ad f61a b0af 21c3 04bd
000003e0: 253e 03bd 21ba 41bb a9c4 c2bc 9a61 24b5
000003f0: a5c5 82bd 1365 14bb 615a f5b1 a278 95bd

fc4.bias f4 [11]
-0.003623127 -0.021187758 0.006236172 -0.018570535 0.03313522 -0.030414477 0.03103325 -0.004590056
-0.03166429 -0.009132668 0.02445414
00000000: fc71 6dbb f391 adbc cd58 cc3b 3c21 98bc
00000010: ccb8 073d c827 f9bc 7139 fe3c 2e68 96bb
00000020: 6ab2 01bd 30a1 15bc 0c54 c83c

exp_avg f4 [64, 40]
8.93419e-09 4.418328e-08 2.9159981e-08 -4.5651745e-08 9.042065e-09 4.41144e-08 2.997227e-08 -4.8351957e-08
9.1294865e-09 4.4068756e-08 3.376882e-08 -5.391901e-08 9.135174e-09 4.3986134e-08 2.5538723e-08 -5.2498436e-08
9.134705e-09 4.3962913e-08 2.4292735e-08 -5.691942e-08 9.149961e-09 4.399547e-08 2.170769e-08 -5.728001e-08
9.303424e-09 4.4003116e-08 2.2142391e-08 -5.406199e-08 9.393496e-09 4.4049443e-08 2.341541e-08 -5.1709318e-08
9.476317e-09 4.405335e-08 2.3652404e-08 -5.0599425e-08 9.377789e-09 4.4026578e-08 2.5206388e-08 -5.0103708e-08
1.446441e-07 7.440683e-07 4.901061e-07 -7.693303e-07 1.4641682e-07 7.4288823e-07 5.0346756e-07 -8.150927e-07
1.4803476e-07 7.42222e-07 5.6775275e-07 -9.087395e-07 1.4829675e-07 7.409469e-07 4.2885915e-07 -8.847113e-07
1.4837366e-07 7.4066975e-07 4.0786952e-07 -9.586744e-07 1.4900087e-07 7.4121067e-07 3.641568e-07 -9.651294e-07
1.51535e-07 7.41403e-07 3.7189812e-07 -9.112117e-07 1.5279625e-07 7.4196237e-07 3.932127e-07 -8.71163e-07
1.5435393e-07 7.421513e-07 3.9749148e-07 -8.532927e-07 1.5281302e-07 7.4170543e-07 4.2362836e-07 -8.446416e-07
6.001393e-08 3.094699e-07 2.0388396e-07 -3.1921385e-07 6.0771896e-08 3.089981e-07 2.0957671e-07 -3.377714e-07
6.130796e-08 3.0873173e-07 2.3628053e-07 -3.7673084e-07 6.142315e-08 3.0820718e-07 1.7871801e-07 -3.6664068e-07
6.1380504e-08 3.0808087e-07 1.7013664e-07 -3.9742153e-07 6.163077e-08 3.0823242e-07 1.5217196e-07 -3.9999887e-07
6.269845e-08 3.083444e-07 1.5519788e-07 -3.7749126e-07 6.334972e-08 3.085736e-07 1.6422388e-07 -3.6090117e-07
6.3989404e-08 3.086809e-07 1.6587704e-07 -3.5340992e-07 6.3327604e-08 3.084083e-07 1.7674584e-07 -3.5008063e-07
1.7066884e-07 8.8418483e-07 5.834032e-07 -9.119864e-07 1.7290631e-07 8.8268075e-07 5.99176e-07 -9.662807e-07
1.7467835e-07 8.819525e-07 6.757896e-07 -1.0771599e-06 1.7490947e-07 8.8058096e-07 5.107829e-07 -1.0485378e-06
1.7507267e-07 8.8003617e-07 4.859677e-07 -1.1362458e-06 1.7581647e-07 8.806769e-07 4.3400885e-07 -1.1439371e-06
1.788784e-07 8.80824e-07 4.4342258e-07 -1.0797972e-06 1.8030056e-07 8.815789e-07 4.6893538e-07 -1.0320922e-06
1.8209744e-07 8.8184106e-07 4.738507e-07 -1.0111484e-06 1.8032699e-07 8.813731e-07 5.051994e-07 -1.0010979e-06
1.8361669e-07 9.5361816e-07 6.2984293e-07 -9.823838e-07 1.861464e-07 9.523335e-07 6.468815e-07 -1.0408493e-06
1.8792508e-07 9.514049e-07 7.295937e-07 -1.1603469e-06 1.8815649e-07 9.497792e-07 5.516179e-07 -1.1293948e-06
1.8838222e-07 9.495143e-07 5.24803e-07 -1.2238407e-06 1.891446e-07 9.5017117e-07 4.6880905e-07 -1.232128e-06
1.9237973e-07 9.504829e-07 4.7905513e-07 -1.1632036e-06 1.940461e-07 9.5112455e-07 5.0660924e-07 -1.111562e-06
1.9591016e-07 9.5140376e-07 5.119248e-07 -1.0889584e-06 1.940636e-07 9.507528e-07 5.4571314e-07 -1.0783027e-06
9.718093e-08 4.973465e-07 3.2618414e-07 -5.149454e-07 9.850919e-08 4.965642e-07 3.3526322e-07 -5.4493546e-07
9.954044e-08 4.9620655e-07 3.7797378e-07 -6.076176e-07 9.96028e-08 4.953316e-07 2.8552947e-07 -5.914712e-07
9.9702106e-08 4.9521725e-07 2.715126e-07 -6.4133e-07 9.992792e-08 4.954512e-07 2.424935e-07 -6.454071e-07
1.014931e-07 4.955698e-07 2.473262e-07 -6.092661e-07 1.0262022e-07 4.9603295e-07 2.615938e-07 -5.8300475e-07
1.0362123e-07 4.96134e-07 2.6437067e-07 -5.7046566e-07 1.02496216e-07 4.9581797e-07 2.8175384e-07 -5.650041e-07
5.048799e-11 2.5894686e-10 1.700054e-10 -2.6299046e-10 5.1207566e-11 2.5855262e-10 1.7485369e-10 -2.787932e-10
5.1666088e-11 2.5832586e-10 1.9684618e-10 -3.1088357e-10 5.178448e-11 2.5790026e-10 1.4878809e-10 -3.02082e-10
00000000: fc7c 1932 08c4 3d33 7a7b fa32 a012 44b3
00000010: 6c57 1b32 4c78 3d33 dcba 0033 8aab 4fb3
00000020: e8d7 1c32 1c46 3d33 3609 1133 9494 67b3
00000030: ecf0 1c32 44eb 3c33 3f60 db32 a47a 61b3
00000040: dcee 1c32 bcd1 3c33 4aac d032 9077 74b3
00000050: f431 1d32 88f5 3c33 b777 ba32 0904 76b3
00000060: e4d4 1f32 f0fd 3c33 a233 be32 c931 68b3
00000070: 0861 2132 e030 3d33 0823 c932 ff16 5eb3
00000080: 48cd 2232 2c35 3d33 302c cb32 a852 59b3
00000090: f41b 2132 bc17 3d33 6f85 d832 9c31 57b3
000000a0: 784f 1b34 fcbb 4735 d68f 0335 fa83 4eb5
000000b0: c036 1d34 e46a 4735 0726 0735 becc 5ab5
000000c0: 7cf3 1e34 1c3d 4735 ac67 1835 1af0 73b5
000000d0: 803b 1f34 7ce5 4635 f43d e634 e67c 6db5
000000e0: a450 1f34 70d2 4635 29f9 da34 cdab 80b5
000000f0: 0cfd 1f34 9cf7 4635 5481 c334 9889 81b5
00000100: a0b5 2234 d404 4735 4aa9 c734 fe99 74b5
00000110: 5010 2434 442b 4735 be1a d334 ded9 69b5
00000120: 7cbc 2534 4038 4735 d066 d534 d40d 65b5
00000130: ec14 2434 9c19 4735 0a6f e334 54bb 62b5
00000140: 02e1 8033 3825 a634 32eb 5a34 6b60 abb4
00000150: b481 8233 60e4 a534 0208 6134 f356 b5b4
00000160: 68a8 8333 c4bf a534 4cb4 7d34 7e41 cab4
00000170: bce7 8333 ac77 a534 a2e5 3f34 b6d6 c4b4
00000180: 4ad0 8333 5066 a534 ceae 3634 335d d5b4
00000190: e059 8433 247b a534 b664 2334 6dbf d6b4
000001a0: d6a4 8633 888a a534 78a4 2634 01aa cab4
000001b0: e00a 8833 08aa a534 8455 3034 e1c1 c1b4
000001c0: 8c6a 8933 c8b8 a534 ef1b 3234 4abc bdb4
000001d0: b8fe 8733 5093 a534 87c7 3d34 b7f2 bbb4
000001e0: 1841 3734 b858 6d35 2a9b 1c35 3acf 74b5
000001f0: 20a8 3934 5cf1 6c35 10d7 2035 27b1 81b5
00000200: 388f 3b34 50bf 6c35 e867 3535 ef92 90b5
00000210: c0ce 3b34 1061 6c35 bc1c 0935 7cbb 8cb5
00000220: 9cfb 3b34 a03b 6c35 7273 0235 1c81 98b5
00000230: 10c8 3c34 a867 6c35 b901 e934 6189 99b5
00000240: b811 4034 c471 6c35 890f ee34 8ded 90b5
00000250: a498 4134 a4a5 6c35 fdc1 fb34 6b86 8ab5
00000260: 9086 4334 a8b7 6c35 8b65 fe34 cbb6 87b5
00000270: e89f 4134 8097 6c35 0a9d 0735 765d 86b5
00000280: 2c28 4534 24fc 7f35 7a12 2935 73da 83b5
00000290: 88df 4734 dca3 7f35 5ca5 2d35 4fb3 8bb5
000002a0: 74c8 4934 0c64 7f35 4cd9 4335 37bd 9bb5
000002b0: 1008 4a34 54f4 7e35 e512 1435 b695 97b5
000002c0: 1c46 4a34 20e2 7e35 30e0 0c35 d942 a4b5
000002d0: ac17 4b34 440f 7f35 a0b0 fb34 995f a5b5
000002e0: f090 4e34 b024 7f35 6b98 0035 5f1f 9cb5
000002f0: fc5a 5034 c850 7f35 ecfd 0735 fb30 95b5
00000300: 605b 5234 f863 7f35 346b 0935 5328 92b5
00000310: cc5f 5034 3c37 7f35 1f7d 1235 33ba 90b5
00000320: c8b1 d033 6481 0535 681e af34 c73a 0ab5
00000330: 008c d333 a24b 0535 3afe b334 ae47 12b5
00000340: f0c2 d533 0e33 0535 52ec ca34 2a1b 23b5
00000350: 38e5 d533 eef6 0435 df4a 9934 97c5 1eb5
00000360: d01b d633 12ef 0435 68c4 9134 dd27 2cb5
00000370: f497 d633 26ff 0435 0e30 8234 0a40 2db5
00000380: 6cf4 d933 4c07 0535 41c8 8434 738c 23b5
00000390: 1060 dc33 2027 0535 2e71 8c34 c87f 1cb5
000003a0: 6086 de33 122e 0535 d4ee 8d34 1a22 19b5
000003b0: e41b dc33 5a18 0535 f443 9734 c9aa 17b5
000003c0: 6c0c 5e2e 885b 8e2f 44ec 3a2f 9e94 90af
000003d0: 9836 612e 0c24 8e2f f040 402f a844 99af
000003e0: d83a 632e 2204 8e2f 466f 582f f9e8 aaaf
000003f0: 24c0 632e 3cc8 8d2f 2098 232f 4312 a6af

exp_avg_sq f4 [64, 40]
1.9710579e-13 4.074616e-12 1.9699633e-14 2.6745777e-13 1.9706417e-13 4.074584e-12 1.9559361e-14 2.6795222e-13
1.970211e-13 4.0745528e-12 1.9320827e-14 2.693834e-13 1.9699033e-13 4.0745306e-12 1.9334552e-14 2.6929967e-13
1.9697814e-13 4.0745267e-12 1.9280372e-14 2.686648e-13 1.9696821e-13 4.0745562e-12 1.875917e-14 2.6763897e-13
1.9696693e-13 4.0745757e-12 1.9256083e-14 2.6890567e-13 1.9692623e-13 4.074611e-12 1.9369328e-14 2.6954326e-13
1.9691829e-13 4.0746686e-12 1.939846e-14 2.6938662e-13 1.9692578e-13 4.0747405e-12 1.9349719e-14 2.7055495e-13
5.5758013e-11 1.1526466e-09 5.57263e-12 7.565937e-11 5.57464e-11 1.1526351e-09 5.53293e-12 7.579927e-11
5.5734087e-11 1.15263e-09 5.465458e-12 7.62041e-11 5.572553e-11 1.1526237e-09 5.4693463e-12 7.6180603e-11
5.57219e-11 1.1526216e-09 5.4540235e-12 7.600088e-11 5.5719214e-11 1.1526317e-09 5.3065824e-12 7.57108e-11
5.5718652e-11 1.1526348e-09 5.4471232e-12 7.6069186e-11 5.570735e-11 1.1526436e-09 5.4791683e-12 7.6249396e-11
5.570511e-11 1.1526637e-09 5.487409e-12 7.620511e-11 5.5707286e-11 1.1526881e-09 5.47362e-12 7.653558e-11
9.606089e-12 1.9858018e-10 9.600645e-13 1.30347426e-11 9.604091e-12 1.9857876e-10 9.532237e-13 1.3058846e-11
9.601985e-12 1.9857774e-10 9.416028e-13 1.3128601e-11 9.600483e-12 1.9857574e-10 9.422721e-13 1.31245e-11
9.599897e-12 1.9857578e-10 9.396295e-13 1.309358e-11 9.599433e-12 1.9857735e-10 9.142288e-13 1.3043591e-11
9.599332e-12 1.9857792e-10 9.384507e-13 1.3105312e-11 9.5973715e-12 1.9857979e-10 9.439643e-13 1.31363965e-11
9.597004e-12 1.985836e-10 9.453858e-13 1.3128748e-11 9.597349e-12 1.9858738e-10 9.430111e-13 1.3185718e-11
7.861868e-11 1.6252266e-09 7.857394e-12 1.0667913e-10 7.860215e-11 1.6252119e-09 7.801406e-12 1.06876535e-10
7.8584896e-11 1.6252046e-09 7.706262e-12 1.0744755e-10 7.8572725e-11 1.6251925e-09 7.71175e-12 1.07414064e-10
7.856782e-11 1.6251932e-09 7.690138e-12 1.07160676e-10 7.8563836e-11 1.6252021e-09 7.482246e-12 1.06751795e-10
7.856305e-11 1.6252105e-09 7.6804405e-12 1.0725704e-10 7.854724e-11 1.6252242e-09 7.725618e-12 1.07511396e-10
7.8544414e-11 1.6252537e-09 7.737247e-12 1.0744877e-10 7.854711e-11 1.6252861e-09 7.7177865e-12 1.07914934e-10
9.1383554e-11 1.8891033e-09 9.133125e-12 1.2400017e-10 9.136454e-11 1.8890847e-09 9.068084e-12 1.2422927e-10
9.134422e-11 1.8890791e-09 8.9575266e-12 1.248929e-10 9.133013e-11 1.8890662e-09 8.963882e-12 1.2485428e-10
9.132447e-11 1.8890685e-09 8.938744e-12 1.245596e-10 9.1320014e-11 1.8890742e-09 8.697108e-12 1.2408476e-10
9.1319015e-11 1.8890827e-09 8.927468e-12 1.2467216e-10 9.130035e-11 1.8891029e-09 8.979995e-12 1.249671e-10
9.129675e-11 1.8891353e-09 8.993479e-12 1.2489476e-10 9.130029e-11 1.8891788e-09 8.970889e-12 1.2543633e-10
2.4838088e-11 5.134602e-10 2.482388e-12 3.370341e-11 2.4832929e-11 5.1345433e-10 2.464705e-12 3.3765712e-11
2.4827434e-11 5.134526e-10 2.43465e-12 3.3946113e-11 2.4823546e-11 5.134496e-10 2.436387e-12 3.393549e-11
2.4821983e-11 5.13448e-10 2.4295598e-12 3.385554e-11 2.482076e-11 5.1345106e-10 2.3638797e-12 3.3726296e-11
2.4820621e-11 5.134542e-10 2.426494e-12 3.3885904e-11 2.4815493e-11 5.134596e-10 2.4407661e-12 3.396628e-11
2.4814506e-11 5.1346827e-10 2.4444318e-12 3.394656e-11 2.4815464e-11 5.1347904e-10 2.4382898e-12 3.4093808e-11
6.7412912e-18 1.3934571e-16 6.758391e-19 9.148923e-18 6.7398267e-18 1.3934536e-16 6.7439224e-19 9.167188e-18
6.73857e-18 1.3933994e-16 6.608516e-19 9.213826e-18 6.7416527e-18 1.3933867e-16 6.614899e-19 9.210948e-18
00000000: e0eb 5d2a e15c 8f2c 4370 b128 ba90 962a
00000010: e1df 5d2a 975c 8f2c d12c b028 fcd7 962a
00000020: 77d3 5d2a 4f5c 8f2c cb06 ae28 3da6 972a
00000030: 99ca 5d2a 1c5c 8f2c 7126 ae28 2c9a 972a
00000040: 15c7 5d2a 135c 8f2c 83a9 ad28 ae3e 972a
00000050: 39c4 5d2a 575c 8f2c b3f7 a828 d7aa 962a
00000060: dac3 5d2a 845c 8f2c 8171 ad28 6461 972a
00000070: 1fb8 5d2a d55c 8f2c a176 ae28 47bd 972a
00000080: d5b5 5d2a 5a5d 8f2c ceb9 ae28 b4a6 972a
00000090: feb7 5d2a 005e 8f2c 6a49 ae28 144f 982a
000000a0: f139 752e 266b 9e30 ca11 c42c 7060 a62e
000000b0: de2c 752e be6a 9e30 34ac c22c 32af a62e
000000c0: 011f 752e 906a 9e30 784c c02c 1893 a72e
000000d0: 5e15 752e 576a 9e30 7e6f c02c de85 a72e
000000e0: 4811 752e 446a 9e30 7ae5 bf2c b120 a72e
000000f0: 420e 752e 9f6a 9e30 72b5 ba2c 647d a62e
00000100: a00d 752e bb6a 9e30 53a7 bf2c 2547 a72e
00000110: e600 752e 0b6b 9e30 f6c7 c02c 98ac a72e
00000120: 61fe 742e c06b 9e30 3012 c12c aa93 a72e
00000130: d400 752e 9b6c 9e30 fc95 c02c b44d a82e
00000140: fbfd 282d 5a57 5a2f f81d 872b 434f 652d
00000150: fbf4 282d f456 5a2f 8127 862b d0bb 652d
00000160: 7feb 282d aa56 5a2f d184 842b f6f5 662d
00000170: bbe4 282d 1a56 5a2f ee9c 842b 7ee3 662d
00000180: 18e2 282d 1d56 5a2f b83d 842b 3e58 662d
00000190: 01e0 282d 8e56 5a2f 90aa 802b 1d77 652d
000001a0: 8cdf 282d b756 5a2f 4013 842b 148d 662d
000001b0: b8d6 282d 3e57 5a2f e6d9 842b 1219 672d
000001c0: 10d5 282d 5058 5a2f 1d0d 852b a0f6 662d
000001d0: 9ed6 282d 6159 5a2f 8eb7 842b 32f7 672d
000001e0: 62e2 ac2e 945e df30 8f3a 0a2d 0397 ea2e
000001f0: 14d9 ac2e 0f5e df30 693e 092d 2406 eb2e
00000200: 5dcf ac2e ce5d df30 eb91 072d 9847 ec2e
00000210: 83c8 ac2e 615d df30 a2aa 072d be34 ec2e
00000220: c0c5 ac2e 675d df30 4d49 072d 19a6 eb2e
00000230: 82c3 ac2e b75d df30 0aa1 032d ebbf ea2e
00000240: 11c3 ac2e 035e df30 a11d 072d 58dc eb2e
00000250: 2aba ac2e 7e5e df30 17e9 072d 896b ec2e
00000260: 93b8 ac2e 885f df30 761d 082d 4848 ec2e
00000270: 18ba ac2e ac60 df30 d2c5 072d b54e ed2e
00000280: 5ef4 c82e 75d1 0131 f0ab 202d f256 082f
00000290: aae9 c82e 21d1 0131 0587 1f2d 6e97 082f
000002a0: 39de c82e 08d1 0131 1d95 1d2d 3a52 092f
000002b0: 4bd6 c82e ced0 0131 bcb1 1d2d 5b47 092f
000002c0: 1bd3 c82e d8d0 0131 8640 1d2d 69f4 082f
000002d0: 99d0 c82e f2d0 0131 4b00 192d c16e 082f
000002e0: 09d0 c82e 18d1 0131 be0d 1d2d 1814 092f
000002f0: 87c5 c82e 73d1 0131 4dfa 1d2d 1d67 092f
00000300: 80c3 c82e 05d2 0131 0737 1e2d c052 092f
00000310: 7ec5 c82e c9d2 0131 4bd1 1d2d 30eb 092f
00000320: 677a da2d 8d23 0d30 baae 2e2c ab3a 142e
00000330: c96e da2d 2323 0d30 2e70 2d2c d080 142e
00000340: 6962 da2d 0423 0d30 c152 2b2c ed4b 152e
00000350: a859 da2d ce22 0d30 0c72 2b2c f73f 152e
00000360: 2356 da2d b122 0d30 0ff7 2a2c f3e5 142e
00000370: 6253 da2d e822 0d30 df57 262c 6f54 142e
00000380: 1253 da2d 2123 0d30 d4bf 2a2c 2308 152e
00000390: 8647 da2d 8223 0d30 efc0 2b2c a262 152e
000003a0: 4d45 da2d 1e24 0d30 f802 2c2c 6e4c 152e
000003b0: 7547 da2d e024 0d30 5394 2b2c 37f2 152e
000003c0: b2b5 f822 98a7 2025 f578 4721 91c4 2823
000003d0: dda7 f822 7ea7 2025 a30b 4721 d21a 2923
000003e0: ff9b f822 e4a5 2025 890c 4321 10f7 2923
000003f0: 1cb9 f822 84a5 2025 c43c 4321 79e9 2923

exp_avg f4 [64]
8.5104324e-10 1.3925643e-08 6.031314e-09 1.6222025e-08 1.7347013e-08 9.636871e-09 4.7830698e-12 6.7866426e-19
3.855582e-15 2.3598998e-11 3.8298307e-19 1.45486005e-08 1.0937047e-08 9.302166e-09 6.3685075e-09 7.0202297e-09
2.1892337e-15 7.4295237e-10 8.36309e-09 1.8331889e-08 1.9347342e-09 8.626385e-18 2.6856874e-16 1.235287e-12
4.020496e-09 7.5136425e-11 1.4936981e-15 1.5644677e-16 4.7644944e-10 6.7154737e-15 2.2802557e-17 6.5247825e-09
3.740384e-22 3.6421324e-15 6.007075e-16 1.7884554e-15 1.511021e-08 2.4925162e-16 3.2382698e-18 2.9991377e-18
1.533897e-08 1.3516968e-17 7.919805e-09 9.53242e-16 1.696666e-08 2.1086535e-08 5.748188e-17 2.4428857e-08
9.534497e-18 8.501658e-09 3.7628585e-09 5.897504e-19 9.282033e-09 4.212659e-10 5.6823843e-09 7.983931e-12
6.695796e-09 4.5214333e-16 2.3326142e-14 5.1291185e-09 3.927499e-09 1.7973384e-19 3.3484917e-16 5.4514327e-12
00000000: d8ee 6930 a03d 6f32 003c cf31 9c58 8b32
00000010: 7c02 9532 688f 2532 104a a82c 6c4e 4821
00000020: 78e9 8a27 3894 cf2d c412 e220 6cf1 7932
00000030: a4e5 3b32 5ccf 1f32 fcd1 da31 9836 f131
00000040: 3cc0 1d27 a038 4c30 42ad 0f32 4078 9d32
00000050: 34f4 0431 f420 1f23 c0d1 9a25 e8d9 ad2b
00000060: a824 8a31 0c3a a52e bc43 d726 f05e 3425
00000070: 26f7 0230 50f3 f127 0451 d223 9830 e031
00000080: a417 e21b be38 8327 6424 2d26 2edf 0027
00000090: b4cb 8132 0caf 8f25 30f1 6e22 1c4c 5d22
000000a0: c0c2 8332 1458 7923 ac0f 0832 6c60 8926
000000b0: 14be 9132 c821 b532 508b 8424 a0d7 d132
000000c0: 64e1 2f23 b00e 1232 744a 8131 4810 2e21
000000d0: d076 1f32 e897 e72f c83e c331 6e74 0c2d
000000e0: d810 e631 4a52 0226 6c1a d228 343c b031
000000f0: a6f2 8631 3831 5420 0407 c125 24ce bf2c

exp_avg_sq f4 [64]
1.3774579e-15 3.89636e-13 6.712776e-14 5.493858e-13 6.3858657e-13 1.7356841e-13 4.7233467e-20 3.2000452e-24
1.9616128e-21 1.1331835e-18 1.6802245e-21 4.3041563e-13 2.2764936e-13 1.6098972e-13 7.465587e-14 9.05876e-14
3.1723704e-23 1.0361742e-15 1.289699e-13 7.20887e-13 7.771429e-15 1.5616069e-21 6.6054684e-22 4.2531062e-21
3.1022395e-14 1.1186652e-17 2.5541306e-21 3.3931563e-21 4.153468e-16 4.040154e-21 2.4108124e-23 7.8260796e-14
3.065769e-21 1.5140797e-21 8.1907087e-22 4.9947876e-21 4.6877687e-13 5.7950076e-23 2.1251425e-23 8.607931e-23
4.8460525e-13 3.0179862e-22 1.1531837e-13 1.9766586e-24 6.075728e-13 9.737884e-13 1.2178892e-21 1.3175937e-12
1.6735186e-23 1.3340033e-13 2.7369747e-14 2.4084048e-21 1.6022767e-13 3.2509093e-16 5.991135e-14 1.3268773e-19
8.2426226e-14 1.4505836e-23 2.947253e-22 4.9152448e-14 2.9667664e-14 7.556006e-25 5.2025894e-22 6.174457e-20
00000000: 3a83 c626 7758 db2a 8528 9729 6ba3 1a2b
00000010: 03bf 332b b06b 432a c20d 5f1f 6d97 7718
00000020: 1c37 141d 763a a721 89e8 fd1c 6e4d f22a
00000030: bb27 802a 2142 352a 2e1c a829 32fc cb29
00000040: 0b68 191a 1554 9526 0b35 112a 62e9 4a2b
00000050: 64ff 0b28 befb eb1c 56a3 471c 85ad a01d
00000060: 63b6 0b29 785b 4e23 12fc 401d 9830 801d
00000070: 5e6e ef25 f9a1 981d d328 e919 473a b029
00000080: 99a4 671d 1fcd e41c 8a8c 771c 9fb2 bc1d
00000090: eff2 032b 5c1d 8c1a fb87 cd19 8320 d01a
000000a0: 7d67 082b 136d b61b 42d6 012a c2ef 1818
000000b0: 3c04 2b2b 6d0c 892b ce0a b81c 516f b92b
000000c0: 50da a119 0732 162a 5786 f628 53f9 351d
000000d0: 7b66 342a f466 bb25 8be8 8629 68a6 1c20
000000e0: 7c9b b929 b64a 8c19 8826 b21b ea5c 5d29
000000f0: 7d9c 0529 d9d8 6917 163d 1d1c 4dca 911f
